autoencoder/models/1650544142.8820624.pt (torch, 468411 bytes, 13 tensors)

encConv1.weight f4 [16, 1, 5, 5]
000000 d1 3a e7 3d 56 f7 52 be 34 bc 9b be 43 94 7e be
       0.11290515 -0.20602164 -0.30417025 -0.24861245
000010 ab a2 46 bb c9 3a 67 bd db 33 9b bd 45 a1 05 3e
       -0.003030936 -0.056452546 -0.0757825 0.130498
000020 04 33 43 3e f5 5c d7 bd fa 89 fc 3d 9e ed fa 3b
       0.1906243 -0.10515777 0.123310044 0.0076577207
000030 8e 62 7c 3c a6 7b 9c 3d a2 9c a3 bd 15 a3 e7 bd
       0.015404357 0.076407716 -0.0798886 -0.11310402
000040 a5 7d a4 3d 0d 08 31 bc b5 2b 40 bd 21 b9 1d be
       0.08031777 -0.010805142 -0.046916682 -0.15402652
000050 bb f9 5b bd cd 5b e7 3d 20 fd fd 3c a2 2a 0f be
       -0.05370496 0.112968065 0.031004488 -0.13981107
000060 8c d8 0f be af 0a 01 3e 89 7f 48 bd 8d 8e 2a be
       -0.1404745 0.12601732 -0.048949752 -0.16655941
000070 7b 2d fc bc f5 d3 33 bd c8 88 0f 3e 3d af c0 bd
       -0.030783406 -0.04390331 0.14017022 -0.09408424
000080 ac 93 f2 3d 01 8a 70 bc 0d 39 01 3e c0 5c ce bd
       0.118445724 -0.01468134 0.1261942 -0.100762844
000090 f1 80 b2 3d 2f 95 88 bd f7 ea 8b bd 62 38 c3 3d
       0.08716 -0.066690795 -0.06831925 0.095322385
0000a0 24 90 0f 3c 98 d2 2e be 58 67 93 bc ec 5c 8d 3d
       0.008762393 -0.17072523 -0.017993614 0.06902489
0000b0 62 f0 c1 3d 9b e7 28 3b 16 0e 37 3e ba a1 c1 3d
       0.094696775 0.0025772813 0.17876467 0.09454675
0000c0 00 93 46 be 67 69 4e 3e ee ef 4a be b7 03 f8 bd
       -0.19392014 0.20157395 -0.19818088 -0.121100836
0000d0 72 3b 0d 3d 06 95 92 3e c3 00 67 3d 84 7e 3d be
       0.03448052 0.2862932 0.05639721 -0.18505293
0000e0 e3 bc 79 3c 3c 1d 64 3e 08 a5 b3 bc 1d 5d 18 be
       0.015242788 0.22276777 -0.021929279 -0.1487927
0000f0 c7 a7 26 bf 20 a3 91 be b0 33 45 be 9b 84 7d be
       -0.6509976 -0.28444767 -0.19257998 -0.24757616
000100 d4 b3 8b be 41 5a ba bd 07 1f c2 bd ef e2 70 be
       -0.27285635 -0.09099246 -0.09478574 -0.23524068
000110 d3 ab 30 be 9a cb 8b bd aa 87 79 be bf 11 d5 bc
       -0.17253046 -0.06825943 -0.24368158 -0.026009439
000120 df 32 48 be f4 ed cd bd e0 88 88 3e 81 44 71 3e
       -0.19550656 -0.100551516 0.26666927 0.23561288
000130 d0 83 33 bc 08 c0 5f 3e 15 3d cc 3d d5 b9 65 be
       -0.0109567195 0.21850598 0.09972588 -0.2243417
000140 6c 1d 44 bc fa 66 cd bd 0a bf be bd a4 12 60 bb
       -0.011969905 -0.10029407 -0.093137816 -0.0034190798
000150 53 07 e3 bd 3e e8 c5 3b 8e 3f 2c 3d ca 26 89 3d
       -0.11085381 0.0060396483 0.042052798 0.066968516
000160 f6 03 67 bd 62 96 d8 bd 47 0b ee bd 9e b4 15 be
       -0.05640026 -0.10575558 -0.11623245 -0.14619681
000170 11 ce 88 3c 89 d1 6b be 8c e4 4f be b6 bb 52 be
       0.016699823 -0.2302915 -0.20302027 -0.20579419
000180 fa 5e 02 bd 18 c4 b0 bd a8 e7 35 be b5 9d 89 be
       -0.031828858 -0.08631152 -0.17764151 -0.26878133
000190 a1 21 8c 3d 97 16 e0 3c 46 40 72 bd cd 1c a8 3d
       0.06842352 0.027354522 -0.059143327 0.08208618
0001a0 5b 28 05 3d 51 3e e7 bd 3a 38 14 be ab f4 22 3e
       0.03250919 -0.11291183 -0.14474574 0.15913646
0001b0 82 9f 6e bd a2 7a 7f bd 92 29 6e be be c1 90 bd
       -0.058257587 -0.06237281 -0.23258045 -0.070682034
0001c0 4b 46 44 be 85 b5 92 bc 2e 89 84 3d 6a 71 69 be
       -0.1916744 -0.01790882 0.064714774 -0.2279717
0001d0 93 d3 82 bd 1d c0 30 3e 74 8c 1e be c1 8c 1a be
       -0.06388011 0.17260785 -0.15483266 -0.15092756
0001e0 9b ad 15 3e 64 01 62 3c 7d f8 2c 3e 21 8f 05 3e
       0.14617006 0.013794277 0.16891666 0.1304288
0001f0 9d 22 7c bd fd 63 0b 3e cb 28 94 3d 5f ee 0e be
       -0.061556447 0.13612361 0.07234343 -0.13958119
000200 aa aa 4e 3d eb ef 4d be ea bd 07 3e 8f 83 6d bd
       0.050455727 -0.20111053 0.1325604 -0.057986792
000210 6d d1 07 be 87 2b b5 bd 34 d6 f5 3d 8b 9f 36 3e
       -0.13263483 -0.08846193 0.12003747 0.17834298
000220 c2 af c1 3b e9 4f 9f 3d 24 2e d2 3d 3c e4 02 bd
       0.0059108445 0.077789135 0.10262707 -0.031955943
000230 4d 88 97 3d b2 10 97 bd fe 8f a8 3d 4f 38 f1 bd
       0.07399044 -0.07376231 0.08230589 -0.11778318
000240 61 4c ff 3c c0 c1 ff 3d df 7f 3b be a6 c0 71 3d
       0.03116435 0.12488127 -0.18310498 0.059021614
000250 4e ec 84 3d f0 9e 99 bd bc 34 72 be 4e 40 88 3c
       0.06490384 -0.07501018 -0.23652929 0.016632225
000260 38 88 01 bc 85 22 48 be 27 1a 0e 3e f8 99 11 bd
       -0.007906012 -0.19544418 0.13877164 -0.035547227
000270 21 bc e4 3d cf 5b 5f be 84 86 73 be 30 87 2b 3d
       0.11168695 -0.21812366 -0.23781782 0.04187697
000280 bf 15 f2 bd e2 2a 04 3e 6d 99 fa ba 0c 22 c6 bd
       -0.11820554 0.12906983 -0.0019119211 -0.09674463
000290 25 f0 2c 3d e2 3f 78 3d 1a 71 57 3d 6d 58 47 bc
       0.042221207 0.0606078 0.052598096 -0.012167078
0002a0 71 66 a2 bd b2 eb 33 be 21 9a 5d 3d 3c 0e 8c 3d
       -0.079296954 -0.1757038 0.054102067 0.068386525
0002b0 5a ca ae 3c a3 a1 37 bd 3f 01 82 be 18 7e be 3c
       0.021336723 -0.044831883 -0.25391576 0.023253486
0002c0 be a7 19 3e 6e 98 15 3e 6e 95 b7 3c 00 0f ed bd
       0.15005395 0.14608929 0.02241012 -0.11575127
0002d0 55 90 e7 bb 2b f4 eb 3c 43 10 fe bd 91 88 55 3e
       -0.0070667663 0.028802952 -0.124054454 0.20852877
0002e0 72 ca bd bd 4f 13 98 be 0a 95 8b be 08 53 d8 3d
       -0.09267129 -0.2970223 -0.27262145 0.10562712
0002f0 f1 3a c5 3b 82 35 59 3e 7a 4e 34 3e d0 b5 2f be
       0.0060189893 0.21211818 0.17608061 -0.171592
000300 79 25 1f be ca a2 9d 3c fd 0c 1c 3e 01 30 4c 3e
       -0.15541638 0.019242663 0.1523933 0.19940187
000310 4e 0c 7c 3d b4 15 2f 3d 7a 6d ed bd 68 cf 9a be
       0.061535172 0.042745307 -0.115931466 -0.30236363
000320 b4 9e fe bd b7 3d 76 be 8e 40 b9 bd a0 3b 02 3e
       -0.12432614 -0.2404698 -0.09045516 0.12718058
000330 ec da e3 3c ef 13 21 3e 75 b6 29 be ae 70 1a be
       0.027814351 0.1573026 -0.16573508 -0.15082046
000340 48 cd b8 bc 28 e9 11 3d c2 a7 a8 bd e1 20 b8 bd
       -0.022558823 0.035622746 -0.08235122 -0.08990646
000350 e6 ee 14 be 96 73 64 bc f1 bc dc 3d 01 72 75 bd
       -0.14544258 -0.013943573 0.10778225 -0.059923176
000360 79 69 55 bd 30 1c aa bc b6 1b 2f be 49 55 ac 3d
       -0.05210254 -0.020765394 -0.17100415 0.08414704
000370 a2 9e 48 be c0 cc 29 3e d6 c0 d1 bd 3e ea 0f be
       -0.19591764 0.16582012 -0.10241859 -0.140542
000380 f0 a3 b6 bd ea dd e4 bc d5 57 f6 bd c0 2e 0b 3c
       -0.08917987 -0.027937848 -0.120284714 0.008495033
000390 5a 92 ff 3d 36 98 38 bd 4f 37 26 3e d6 5b b9 3b
       0.12479086 -0.045067035 0.16232036 0.0056566996
0003a0 08 6f 00 be 47 3f 1a 3d d7 03 50 3e ec af e0 3d
       -0.12542355 0.037658002 0.20313965 0.109710544
0003b0 cf 91 ee 3b 62 56 a8 3d 51 f7 10 be c5 16 4f 3c
       0.0072805653 0.08219601 -0.14156844 0.012639706
0003c0 6f 06 64 bd 33 f8 a4 bd 95 c7 37 bb 77 b7 28 be
       -0.055670198 -0.08055153 -0.0028042544 -0.16476236
0003d0 6d 64 90 bd 93 f4 59 bd c7 19 05 3d af 83 99 3c
       -0.07050405 -0.05321176 0.032495286 0.01873955
0003e0 d3 3a 69 3e e9 bc 8a 3e c3 8c 36 3c 38 3a 13 3e
       0.22776346 0.27097252 0.011141959 0.14377677
0003f0 88 e7 70 3c 67 e9 13 3d 34 fb 56 be a7 e0 1f 3e
       0.014703639 0.03611126 -0.20994264 0.15613042

encConv1.bias f4 [16]
000000 0f bc 8f 3d 46 75 02 bd 2a 62 2a bb f6 41 c3 bc
       0.07018291 -0.031850122 -0.0025998452 -0.023835164
000010 7e cc 28 3d 16 ee ab bd 58 a6 7f 3c a5 5c 2f be
       0.041210644 -0.08395021 0.015603624 -0.17125185
000020 ad 22 7c 3d 55 12 09 be 97 e6 1e bd aa d0 23 3e
       0.061556507 -0.133859 -0.038794126 0.15997568
000030 d3 b1 04 be e1 73 0a be 22 53 81 3d b2 89 0a bc
       -0.1295846 -0.13520767 0.063146845 -0.008455681

encConv2.weight f4 [32, 16, 5, 5]
000000 32 88 55 bc b8 4d 6a bd fe 87 b1 bd 71 8f 38 3d
       -0.01303296 -0.057203025 -0.086685166 0.04505867
000010 42 5b 3a bc 34 95 88 bb 27 6f ae 3c 74 d5 32 bd
       -0.011374297 -0.004168177 0.021293236 -0.043660596
000020 20 d9 3b be e7 f2 1e be 2a 72 c7 3d 1e da cf 3b
       -0.18344545 -0.15522347 0.09738572 0.0063431403
000030 37 95 eb bd 60 b7 0c be ec 8f 41 bd 31 27 e6 bc
       -0.1150307 -0.13741827 -0.047256395 -0.02809486
000040 fd a5 46 3d ed f2 2e 3d b8 d3 26 3c c2 1a 8c 3d
       0.048498143 0.04271214 0.010182314 0.06841041
000050 27 fe d5 bd 8d 50 95 bd af 74 d1 bc b1 87 a4 3d
       -0.10448866 -0.072907545 -0.025568334 0.080336936
000060 0b a3 53 3d fe 0b 87 3d e8 49 73 3c aa 49 e4 bc
       0.05166916 0.06594084 0.014849164 -0.027867157
000070 30 8a a3 3c 51 aa f6 3d b4 42 55 bd fe 6b 11 bc
       0.019963354 0.12044204 -0.052065566 -0.008875845
000080 f7 2c 16 3c 8f 46 99 bc 23 52 ae 3d 74 e7 dd bd
       0.009165994 -0.018710403 0.0851176 -0.10835162
000090 e1 85 e6 3a af 48 c4 3c fa 1b 17 3d 5a 48 26 3d
       0.0017587506 0.02396044 0.036891915 0.040596344
0000a0 b1 0b a6 bc 4d 2c f7 3c 97 7e 56 3d 0d 44 90 bc
       -0.020269247 0.030172491 0.05236682 -0.017610574
0000b0 d4 b0 78 bd b4 ab 04 bc 34 ce b1 3c d6 47 2a 3b
       -0.06071551 -0.008097578 0.02170477 0.002598276
0000c0 9a de 53 bc a7 1d 7c bd bd 99 30 bd 35 ee 05 bd
       -0.01293149 -0.061551716 -0.043115366 -0.032697875
0000d0 42 9c dc bb f3 59 57 3d 85 7e 20 3c b0 5c 97 bb
       -0.0067324946 0.052576017 0.00979579 -0.0046192035
0000e0 fa fc 98 bd ca a0 d5 3c 45 9c 89 3d 25 08 55 be
       -0.074701265 0.026077647 0.06719259 -0.20803888
0000f0 a1 33 88 3a 4b 70 c2 3d b5 59 e3 3c db 92 ee 3c
       0.0010391363 0.094940744 0.027752737 0.02912276
000100 26 1a 25 be ba 7b 33 3e b2 a6 2a be ee dc 32 be
       -0.16123256 0.17527667 -0.16665152 -0.1746709
000110 2b 5f dd bd a2 f1 56 3d cd 97 83 be 12 de c2 be
       -0.108091675 0.052476533 -0.25701752 -0.3806005
000120 12 6b 82 be 7a dd 8c bd d6 2c 13 3e ed 22 1d 3e
       -0.25472313 -0.06878181 0.14372572 0.15345354
000130 f2 a8 04 3d 20 dd f9 bd 3d bd 9c be 11 23 9b be
       0.03238768 -0.12200379 -0.30613127 -0.3030019
000140 20 2a b1 3d 52 cd 09 3d 32 40 5e bd 96 c3 ab bc
       0.08650613 0.033643074 -0.05426044 -0.020967286
000150 23 40 eb 3c f1 37 7d 3e ac 3f 4d 3c 40 c2 9e bd
       0.028717106 0.24728371 0.012527388 -0.07751894
000160 98 d4 40 bd 56 09 05 bd 3c d5 56 3e 19 1d ba bc
       -0.047077745 -0.032479607 0.2097978 -0.022718953
000170 ef 4c 27 be aa 3d 17 be c9 13 04 be 71 3a 90 3d
       -0.16337942 -0.14769617 -0.12898172 0.07042397
000180 87 5f 44 3c f6 32 bd bd 7f eb 28 be 0f b9 83 3d
       0.011985666 -0.09238236 -0.16496085 0.064317815
000190 0b 4f 54 3b 91 a6 e6 3b 51 58 cc bb 8a 3c 64 bd
       0.0032395746 0.007038899 -0.006236114 -0.055721797
0001a0 fe bc c2 bd 8f ed 76 bd 55 ac 9d 3c 36 e5 30 3d
       -0.09508704 -0.060285147 0.019247213 0.043187343
0001b0 ea 77 f1 bb b1 1b bd bd 2d cb 0a bd c4 b0 27 3d
       -0.007369031 -0.09233797 -0.03388517 0.04094006
0001c0 2f 69 24 3d 21 60 bc 3c d7 de d7 bc 6c 08 bb 3d
       0.040139373 0.022995057 -0.026351376 0.09132466
0001d0 04 65 da 3d 9c 83 05 3d 53 32 9d bb bb d9 6e bc
       0.106637985 0.032596216 -0.004797259 -0.014578278
0001e0 f6 64 92 3d af 45 db 3c 41 f6 cd bc 42 67 10 be
       0.07148163 0.026766626 -0.025141837 -0.1410189
0001f0 47 74 26 be 80 57 e1 3d c3 a3 8a 3d ea 29 0e 3d
       -0.16255294 0.110030174 0.06769516 0.03470794
000200 2c 07 09 3d 30 87 0f 3e 09 67 3b 3d c8 bf 37 bb
       0.033454105 0.14016414 0.04575256 -0.0028037895
000210 5a 3b b8 3b 0d df 16 3d ac 2d 69 3d c2 bb 30 bd
       0.0056223096 0.03683381 0.05692832 -0.04314781
000220 a0 25 40 bd 32 08 06 bd 36 7d 8e bd 74 86 68 bc
       -0.046910882 -0.03272266 -0.06957476 -0.014192212
000230 0f 9d 72 be cf 96 9e bd 6f 01 f6 bd 8b 00 37 be
       -0.23692726 -0.07743608 -0.12011992 -0.17871301
000240 2c f2 ec bd 21 01 a3 be 04 03 41 be 63 af 7a be
       -0.11569628 -0.318368 -0.18848807 -0.24480967
000250 4d c0 eb bd 5c 6f a5 bd 4e 48 cc 39 c2 47 7a bd
       -0.11511288 -0.08077881 0.00038963783 -0.06110359
000260 ba ec 96 bd ac f8 21 3c 28 10 ac be 4a 5e e4 bd
       -0.07369371 0.009885948 -0.33606076 -0.11150797
000270 12 1c f8 bd 23 94 09 bc 81 e4 95 3d d8 f7 28 be
       -0.12114729 -0.008397135 0.07318974 -0.16500795
000280 16 30 4d be 7c 95 04 be e5 40 ae 3b 78 17 fe bc
       -0.20037875 -0.12947649 0.0053177946 -0.03101705
000290 0b 01 ab bc 47 a9 56 be f3 30 b5 bd 8a 42 37 bd
       -0.02087452 -0.20963012 -0.08847227 -0.04474119
0002a0 df a9 42 3d 88 8d 7d bc 5b 8a 21 be 3b 25 22 bd
       0.047525283 -0.015475638 -0.15775435 -0.039586287
0002b0 2e 3a 08 3d c5 9d d0 bb 52 89 83 bc 1c c3 12 3d
       0.03325861 -0.006366464 -0.01605669 0.035830602
0002c0 e3 29 e5 3c 9c 39 75 bb e6 85 38 3a 70 1c 07 be
       0.027974075 -0.003741837 0.00070389954 -0.13194442
0002d0 71 5d 7d bd e9 cc 3a bd 45 2e 7e bd 99 35 c2 3d
       -0.06185669 -0.045605574 -0.062055845 0.09482879
0002e0 65 e8 d2 3d 87 71 9a bc 6b 32 15 bd c0 e1 41 bd
       0.10298232 -0.018852962 -0.036425035 -0.047334433
0002f0 a2 10 86 bc 5b ed a6 3c 4c 2c e5 bd 01 09 55 bd
       -0.016365353 0.020376852 -0.111900896 -0.05201054
000300 9b d0 8a 3c 38 2d 6d bd e2 39 a2 bc 38 57 a5 be
       0.016945174 -0.057904452 -0.019802991 -0.32293105
000310 56 0e bc bd 09 39 ba 3d 2f 08 84 3d f5 49 c1 bc
       -0.09182422 0.0909291 0.064468734 -0.023594836
000320 72 cd ad bd 43 06 17 3d 12 a2 74 3d 8b 36 ac 3d
       -0.08486451 0.036871206 0.059724875 0.08408841
000330 82 51 fb 3d ff 12 74 bd 33 1d 13 bd dc 0a 51 3d
       0.12271406 -0.05958843 -0.03591652 0.051035747
000340 ec 53 60 3e 20 6d 50 3e 7e 80 95 bd d9 a4 00 be
       0.21907014 0.20354128 -0.072998986 -0.12562884
000350 43 b4 f2 b8 55 d9 b4 3d 9f 6f a1 3c eb 3a 28 be
       -0.000115730356 0.08830515 0.019706545 -0.16428725
000360 ac cf 6a bd df ed ea bc 10 51 f1 bb da 55 87 3c
       -0.057326958 -0.028677879 -0.0073643997 0.01652043
000370 8c b5 18 bc 9e fa 83 3d 7e 6f ae 3c c1 78 0a be
       -0.009320628 0.06444286 0.021293398 -0.13522626
000380 8e 3a b8 bd 1a 2a 1f 3c 68 a5 ec 3c 92 8c a9 3d
       -0.089955434 0.009714628 0.028887466 0.08278765
000390 d6 a9 3e 3d fc b6 5c 3d 37 0f 41 3d e9 ec 81 3d
       0.046548687 0.053885445 0.04713365 0.06344015
0003a0 29 3a a1 3c ab a3 cd 3d 2a 40 09 3d 8c 87 05 bc
       0.019681053 0.10040983 0.033508457 -0.008149993
0003b0 ac c9 86 bb 61 2e 1a bb 5f 62 88 3c 62 93 3f bd
       -0.0041133966 -0.002352618 0.01664847 -0.046771415
0003c0 fe 87 22 3b 45 ba 67 3d 9c 78 3d 3d db 10 d1 bd
       0.0024800296 0.056574125 0.0462576 -0.10208293
0003d0 36 5a 01 be d2 b1 f5 3b 69 c7 96 3c cd 7f 8e bd
       -0.12632069 0.0074980045 0.018405633 -0.0695797
0003e0 c9 ee 0a be 20 9f c7 bd 03 31 47 3d 70 06 cc 3d
       -0.13567652 -0.097471476 0.048630726 0.09962165
0003f0 c7 4d 4b bc 0a 49 61 3d 29 87 ce 3d 13 24 e2 3c
       -0.01240868 0.055001296 0.100843735 0.027605092

encConv2.bias f4 [32]
000000 12 f8 b5 3b 7a 7c 15 bd a8 d8 e3 3c 87 47 f3 bc
       0.005553254 -0.036495663 0.02781327 -0.029697193
000010 29 8f 4e 3c 4c 55 4a 3c c8 10 5b 3d 27 64 03 bc
       0.012607374 0.012349438 0.0534828 -0.008019484
000020 d5 5e 36 bd 51 d0 54 3c 77 ed 01 3b dd b3 10 bd
       -0.044524033 0.01298912 0.0019825378 -0.03532778
000030 b2 65 5e 3b e5 c1 00 3a ac f1 0a bd 16 b6 91 3c
       0.0033935127 0.0004911705 -0.033921883 0.01778702
000040 9a 02 13 3c 04 43 21 3a 6c 24 b0 bc cd cf 33 bc
       0.008972788 0.00061516487 -0.021501742 -0.010974837
000050 c2 d7 11 bd 1d 92 39 3d ae 94 4a bb ef a6 80 bd
       -0.035606153 0.04530536 -0.0030911374 -0.0628184
000060 b8 48 2d 3d 54 8c 5a bc d6 f2 0f 3d 30 a9 21 3d
       0.042305678 -0.013339121 0.035143696 0.03946799
000070 47 ce bc bd 31 b3 42 3c 52 c1 b6 bb ee 91 83 bd
       -0.09219032 0.011883543 -0.005577245 -0.06424318

encFC1.weight f4 [2, 12800]
000000 71 c5 6e bd c2 27 26 3c 3c cb 52 3c 53 67 10 bd
       -0.058293764 0.010141315 0.012865838 -0.035254788
000010 5d a3 15 3d e5 aa d5 bc cb e0 1e bc d2 7a f2 bc
       0.03653275 -0.026082465 -0.0096971495 -0.02959958
000020 e7 24 76 bc 6f 64 f5 b9 dd a3 e4 bc b3 cd 74 bd
       -0.015023447 -0.0004680487 -0.027910167 -0.059766483
000030 3c 9c c1 bd 9d 5d a4 bd d3 69 0f be a9 44 12 3c
       -0.094536275 -0.08025668 -0.14005212 0.008927503
000040 22 7c 0a be 50 99 b2 3d f4 e4 b9 3c fa 11 45 3d
       -0.13523915 0.08720648 0.022692181 0.048112847
000050 2c c0 47 bd 89 87 1c 3d 50 7d b2 3d 83 b9 27 bd
       -0.048767254 0.038215194 0.08715308 -0.040948402
000060 b5 df 44 bd 6e a0 06 ba e6 bb 94 3b 4f 7c 4d 3c
       -0.048064906 -0.00051356 0.004539001 0.0125418445
000070 f1 44 1c 3c eb 5c 24 3d 6d fa 5a ba 3a 14 0b bd
       0.009537921 0.040127676 -0.00083533564 -0.033954836
000080 27 d3 0d be 85 1b 78 bd b3 73 eb bd d4 b2 46 bd
       -0.1385008 -0.06057312 -0.11496677 -0.048510388
000090 8e 07 0c be d5 3a 06 bd 07 33 05 be 45 24 37 be
       -0.13674757 -0.03277095 -0.13007747 -0.1788493
0000a0 67 a1 a4 3d 83 1a 57 bd 3a 23 ff 3c 27 f1 ab 3c
       0.080385976 -0.052515518 0.031144727 0.020989014
0000b0 f2 0a ff 3c 23 11 fc bb e4 bb 2c 3d 31 77 02 3c
       0.031133149 -0.0076924725 0.042171374 0.007962988
0000c0 8e 52 01 bc e6 e7 70 3d ed fe 9a 3d 5c e6 b4 bc
       -0.007893218 0.058814906 0.075681545 -0.0220825
0000d0 2c 5f 47 3c c9 ee a0 3d 54 6e b5 3d 7e 52 94 3c
       0.012168687 0.07858045 0.08858934 0.018105742
0000e0 ff 24 cf 3c 01 9e b3 bd c4 8e a4 bc 3d b4 6a 3d
       0.025286196 -0.08770371 -0.020087607 0.057300795
0000f0 31 73 12 3e b2 d4 52 3c 95 0d 6a bd c8 9e 2d bd
       0.14301755 0.012868093 -0.05714186 -0.042387754
000100 ed 8b 57 bb 98 5d 4c 3c 9a 8d c4 bb 5d a5 b8 bc
       -0.0032889799 0.012473486 -0.0059983255 -0.022539789
000110 a7 45 0a 3d 16 5e 8d 3d 6a bb b6 3c 6f 45 3b 3d
       0.033757832 0.06902711 0.022306163 0.045720514
000120 b9 98 c8 bc ef 4f c4 3c f2 7f 4e 3d 56 a0 19 3d
       -0.024486886 0.023963897 0.050414987 0.037506424
000130 e8 18 3d 3d 20 df b9 3d c3 4e 69 3d 77 9e 17 3e
       0.04616633 0.09075761 0.05695988 0.14806543
000140 ec b4 21 bc 7b 74 53 3d 81 3b cb bc 45 a4 c6 bb
       -0.009869795 0.051624756 -0.024808647 -0.006062063
000150 bf ed 51 bd dc 7b 2f bb 64 9d 8c bb b3 d4 20 3c
       -0.051252123 -0.0026776707 -0.0042912234 0.009816336
000160 be 59 f2 3b d9 8b be 3c 5d c7 00 3d 6c 7b 24 bd
       0.007395952 0.023260044 0.031440128 -0.040156767
000170 9a 36 f9 3a cc b0 0a 3c b8 e6 ae bb a1 73 00 bd
       0.0019013465 0.008465003 -0.0053375624 -0.031360272
000180 c0 d2 ce bc 93 f1 56 3c 5c e7 95 bc f7 c9 61 3c
       -0.025246978 0.013119119 -0.018298797 0.013781062
000190 9b 63 a1 3d a3 40 38 bc f3 58 00 be 98 f5 82 bc
       0.07880326 -0.011245879 -0.12533931 -0.015986249
0001a0 bf df 70 bc da dd 66 bc b0 df ff 3b dc ec bd 3c
       -0.014701783 -0.0140909795 0.007808648 0.023184232
0001b0 05 f0 c3 3b ab 08 8d 3c cc b2 53 bc d5 a2 30 bc
       0.0059795403 0.017216047 -0.012921046 -0.01078101
0001c0 9f 12 9d 3b 87 7b 53 bb a4 96 ff bb bc 56 20 bc
       0.0047934796 -0.0032269673 -0.00779994 -0.009786304
0001d0 e6 8f 10 bd 53 26 9b 3b e4 7e 0e bd cb 7b af 3d
       -0.035293482 0.004734793 -0.03478898 0.085685335
0001e0 52 3a ee 3d 2e 48 a9 3d 7c 8f b2 bc 86 1e 4c bd
       0.116322175 0.0826572 -0.021796934 -0.049833797
0001f0 e5 45 16 bd b4 75 67 bc 21 55 a4 bc 2e 55 e2 3b
       -0.03668775 -0.014127184 -0.020060124 0.006907127
000200 8a c7 3c 3b 2c f3 1d bc 9e 66 24 bc 65 4d 0a 3d
       0.0028805458 -0.009640496 -0.0100342315 0.033765215
000210 67 a4 d8 3b ef e7 65 bb 01 ef e0 bc 55 bc 56 bd
       0.006611395 -0.003508087 -0.027457716 -0.0524257
000220 6f 55 2a 3d ac 86 a5 3d bd c4 9d bd e8 4c d6 3c
       0.041585382 0.08082327 -0.077035405 0.026159719
000230 1e 49 00 3c 61 4b 58 ba 77 7b 33 3a e3 b1 ea bc
       0.0078299325 -0.00082509784 0.0006846706 -0.028649276
000240 d8 a7 24 bd c2 c7 83 bc a0 9e 95 3c 27 d8 86 3c
       -0.04019913 -0.016086463 0.018264115 0.016460491
000250 43 bc f4 bc 04 5d 39 bd 37 9b 9d bc 0b 11 88 3c
       -0.029874926 -0.045254722 -0.019239051 0.01660969
000260 66 f2 07 3d e5 f5 ab bb 32 2a 28 3d c7 4c d2 3c
       0.033190154 -0.005247819 0.041055866 0.025671376
000270 1a c7 05 3c 7f 8d e2 bd 50 c7 bf bd 5e 2a 0e 3e
       0.008165145 -0.110621445 -0.09364188 0.1388335
000280 f9 01 4b 3c eb f7 16 3d 85 fc 20 3c 83 3e 08 be
       0.012390607 0.036857527 0.00982583 -0.13305096
000290 94 be 0c 3d 13 0e 61 3d 9c 14 a9 3d 2e 47 08 bc
       0.034361437 0.054945063 0.08255884 -0.008317752
0002a0 48 79 61 bc 46 72 fa bc 62 c2 14 3c fb 88 cd bb
       -0.013761826 -0.030572068 0.009079548 -0.006272433
0002b0 f7 48 16 3d d8 8f c7 ba 23 7d b4 3c a4 d4 e3 bd
       0.03669068 -0.0015225364 0.022032326 -0.11124542
0002c0 fb 9b a1 bd 7c 6e b8 bd b4 98 9d 3d 40 26 0a 3e
       -0.07891079 -0.09005448 0.076951414 0.13491154
0002d0 33 dc de 3d 13 21 9f 3d 56 fc 66 bd 51 10 c7 3b
       0.108818434 0.0776998 -0.05639299 0.006074943
0002e0 35 df ff 3c 53 e6 8f 3d 0b 41 ff 3c e7 51 84 bc
       0.031234363 0.07026353 0.031158945 -0.016152335
0002f0 3c 1b ee bb 23 5c 72 3c cc b3 a9 3c 1f b6 9e 3d
       -0.00726643 0.014792475 0.020715617 0.077495806
000300 46 b2 92 bb fb b2 01 bc b9 46 82 bb 76 b0 21 bd
       -0.0044768183 -0.007916207 -0.003975716 -0.039474927
000310 33 9b c9 bd d2 32 c1 bd 21 45 97 3d 30 37 a1 3b
       -0.09844055 -0.09433521 0.07386232 0.004919909
000320 d7 90 ba bd 74 4d e2 bc 3d f5 8b 3c 08 cb 0f 3d
       -0.09109657 -0.027624823 0.017084712 0.035105735
000330 ad 60 29 3d 4a 08 01 3d 67 28 f3 bb a8 fe b9 bc
       0.041351963 0.031502046 -0.007420588 -0.022704437
000340 a9 23 22 3c 32 6a 4e 3d fb 42 30 3d 55 bb 7e 3d
       0.009896197 0.050394244 0.043032628 0.062190372
000350 cc 6e 28 3d 20 de b8 3c 7a e4 f3 bc 4b 3d 67 3b
       0.04112129 0.022566855 -0.029772032 0.0035284336
000360 7d 66 5b bd ab eb 8e b7 85 8c 0f 3e 52 8a 0c be
       -0.053564537 -1.703746e-05 0.14018448 -0.1372464
000370 f5 28 29 bd a9 06 48 3c 40 72 2a 3c 6e 33 31 bc
       -0.041298825 0.012208619 0.010403216 -0.010815484
000380 f6 57 9c 3c 46 cc 1b 3d c5 65 67 3c 45 6e 95 3c
       0.019084912 0.038036607 0.014123385 0.018241057
000390 78 72 69 3b 01 f2 41 3c e2 56 03 3d 35 ab 70 bc
       0.0035621207 0.011837483 0.03206528 -0.014689256
0003a0 29 2b a7 3d 0c 53 df 3c e3 ae b0 3c 87 f5 b4 bb
       0.08162529 0.02726128 0.021567767 -0.005522433
0003b0 6f c7 92 bc da 7d 39 bd a8 2d 18 bc 7f 9e e3 3d
       -0.017917363 -0.045286037 -0.009288229 0.11114215
0003c0 ca 40 03 be e6 55 55 3d 13 d9 86 3d 44 f6 cd 3d
       -0.12817684 0.052083872 0.06584372 0.10056737
0003d0 0b e8 9b 3d 09 8e 66 3d eb 29 7b 3c 3e 44 27 3c
       0.07612618 0.0562878 0.015329818 0.010209141
0003e0 a8 bb 11 3d 75 f1 33 3d 09 03 bb 3b 4d e8 e4 3c
       0.035579354 0.043931443 0.005707149 0.0279428
0003f0 ab 77 80 3c 8f f8 83 3b d3 e0 f1 3c 40 a9 0f bc
       0.015682062 0.004027433 0.02952615 -0.00876838

encFC1.bias f4 [2]
000000 da 08 9f 3d d5 6b 27 3d
       0.0776536 0.04087432

encFC2.weight f4 [2, 12800]
000000 4c 73 2e bd df e0 b7 bc 55 03 17 be 3f ba 58 be
       -0.042590424 -0.022446094 -0.14747365 -0.21164797
000010 1b f1 04 be a6 e0 ef bb 93 40 3d bd 9f 39 99 3d
       -0.129826 -0.0073204814 -0.04620416 0.074816935
000020 42 82 6d 3d 6a 70 f4 bc 59 12 95 bc 22 93 d7 3d
       0.05798555 -0.02983876 -0.018197225 0.1052611
000030 af 1a 9f 3d e3 ef d8 3d 13 cb 26 3e 9b 92 eb bd
       0.07768761 0.1059263 0.16288404 -0.11502572
000040 ad ed b8 bd 62 f4 95 bd 9a 79 d0 bc 21 d6 13 be
       -0.09029708 -0.07322003 -0.02544861 -0.14437152
000050 0c 7e 35 be f9 85 41 be f3 90 6d be 20 5b 06 be
       -0.17723864 -0.18898763 -0.23199825 -0.13120699
000060 37 40 cd bd 99 0b 86 bd b5 2e a0 3d dc 61 b6 3c
       -0.10022014 -0.06545181 0.07821409 0.02226346
000070 66 5d 43 bd 94 62 c0 bc ea 8b a9 3d 1f 68 a3 3d
       -0.047696494 -0.023484506 0.082786396 0.07978844
000080 ab 3c 00 3d 8b cd 11 3e 09 ff 0c be 20 d3 23 be
       0.031307857 0.14238565 -0.13769163 -0.15998507
000090 e3 64 0b bd 4b a8 b4 bc 71 1b 16 be e4 3c ce bd
       -0.03403176 -0.022052905 -0.14658906 -0.10070208
0000a0 a4 1c 35 be 18 d6 02 be b8 bd c8 bd 61 c4 a6 bd
       -0.17686707 -0.12776983 -0.09801811 -0.08142925
0000b0 36 fa c9 bd e4 d2 2a bd 7e 56 82 ba 20 8b af bc
       -0.09862177 -0.041705027 -0.000994399 -0.021428645
0000c0 15 b0 22 bd 7c e6 35 3b 43 a6 26 bd 5b c4 a2 3c
       -0.039718706 0.0027755788 -0.040685903 0.01986902
0000d0 a4 ae 5b bd d5 ee b4 bd 9f 3d db bd 26 db 10 be
       -0.053633347 -0.08834616 -0.10705113 -0.14146098
0000e0 e5 b6 03 3d e5 48 ea bd f7 95 28 bd 00 db 3a bd
       0.032156844 -0.11439685 -0.041158643 -0.04561901
0000f0 d6 37 80 bc a2 c8 1a bd c6 33 e0 bc 37 b8 34 bd
       -0.015651625 -0.037788995 -0.027368437 -0.044120993
000100 5e 3d 27 bd 4c 7e 1d bd 65 e4 42 bd f1 6d 0d bc
       -0.04083001 -0.038450524 -0.047581095 -0.008632169
000110 5e d5 a2 3b a5 a4 77 bd e8 40 e3 bd 9e 3d 47 be
       0.004969283 -0.06045975 -0.11096364 -0.19457099
000120 4e bc 7b be fe b4 31 be 13 41 c3 bd 63 5b 2e bd
       -0.24583551 -0.173542 -0.09533896 -0.042567622
000130 26 81 3e bd be 44 ff bc c5 7b 5b b9 5c 93 12 bc
       -0.046509884 -0.031160709 -0.00020931575 -0.008946266
000140 d7 56 17 3d 04 2b ab 3d 93 bb 94 bc 1b d9 1f bd
       0.03694805 0.08357814 -0.018155849 -0.039025407
000150 19 00 60 bd 13 3d 5a bd 6b 18 a7 bd 76 b0 c1 bd
       -0.054687593 -0.0532809 -0.08158954 -0.094574854
000160 2e 1f 07 be 7e f3 36 be e1 3a 42 be f3 73 83 be
       -0.13195488 -0.17866322 -0.18967773 -0.256744
000170 e7 0c 5c be d8 85 7a bd 12 0b b1 bd 9f 32 75 bd
       -0.21489297 -0.0611628 -0.086446896 -0.05986273
000180 95 a7 2d bd 89 77 86 bd 91 57 90 3d 58 70 9a bc
       -0.042396147 -0.06565768 0.07047952 -0.018852398
000190 dd bb 14 3d 00 ef 9f 3c f4 50 de bc b8 ed 04 bd
       0.036311973 0.019523144 -0.02713821 -0.03245327
0001a0 f6 45 80 bd 1f 38 0e be 1b 94 e9 bd 5a 80 db bd
       -0.06263344 -0.13888596 -0.11405202 -0.107178405
0001b0 e8 eb 18 be 77 a7 16 be e7 c0 1c be 9d 9c e2 bd
       -0.14933741 -0.1471232 -0.15307961 -0.11065028
0001c0 f3 bf 14 bd 80 1a 2b bd a6 7b bc bd 20 33 1a be
       -0.03631587 -0.04177332 -0.092032716 -0.15058565
0001d0 7d 81 08 be 2d b9 a5 bd ee 2f 50 3d 8a 83 1a bd
       -0.13330646 -0.0809196 0.05082696 -0.0377231
0001e0 b2 82 8a bd e5 b2 e4 bc 53 17 98 bd 77 4b 3a bd
       -0.067632094 -0.027917335 -0.07426324 -0.045482125
0001f0 38 d9 20 be f7 06 06 be b8 32 1e be f4 91 4a be
       -0.15707862 -0.13088594 -0.15449035 -0.19782239
000200 7a 70 e2 bd 7b f5 64 bd 52 ef 13 bd 10 26 46 bc
       -0.110566095 -0.05589817 -0.036116906 -0.012094036
000210 95 01 5b bd 88 4c 9e bc e2 99 ea bd 73 60 12 be
       -0.053468306 -0.019323602 -0.11455132 -0.14294605
000220 15 7d 95 bd 64 5e ee bb 6b 08 6f 3d f5 af bc bc
       -0.07299248 -0.007274436 0.058357637 -0.023033122
000230 7c a1 16 3d 4c c0 85 bd d2 04 6d bc ab f1 70 bd
       0.036775097 -0.06530818 -0.014466481 -0.058824223
000240 f3 d1 85 bd 38 ea 6e bd 59 68 34 be df 02 7a bd
       -0.06534185 -0.058328837 -0.1761793 -0.061037894
000250 a1 39 89 bd 1f cb 3d 3c e7 8d 43 3d c0 d0 9b bd
       -0.06700445 0.011584072 0.04774275 -0.07608175
000260 f2 6e f9 bd c1 d5 8f bd 48 4d ac bd 7a d4 89 bd
       -0.12179364 -0.07023192 -0.08413178 -0.0672998
000270 26 50 fd 3b e7 d6 30 3c e5 ad eb bd 51 bb 25 bd
       0.0077305017 0.010793424 -0.11507777 -0.040461842
000280 df 05 60 3d a6 a2 94 bd 36 8a 34 bd f8 af 43 3d
       0.0546931 -0.07257585 -0.04407712 0.04777524
000290 7c 38 f8 3c cf 4b 77 bd 79 59 df 3b 94 ba 20 bd
       0.030300371 -0.06037503 0.006816086 -0.039240435
0002a0 ce 36 27 bd 05 eb 4d 3d d1 7c ef bc 7a 3e 08 be
       -0.04082375 0.05027296 -0.029234322 -0.13305083
0002b0 24 9c 09 be f9 d7 e9 bd fe 99 9a bd 5f a5 88 bb
       -0.13438469 -0.11418147 -0.07548903 -0.0041701044
0002c0 45 5d 96 3c cb e8 99 3c f8 fa 68 3d a7 c3 52 3c
       0.018355021 0.018787762 0.056879967 0.01286403
0002d0 df a5 19 bd 02 72 6e bd d2 ca 05 bd 63 ec 2f 3c
       -0.037511703 -0.058214195 -0.032664128 0.010737511
0002e0 00 11 75 bd c0 bd 05 bd 58 7e ac bd 39 9c 94 bd
       -0.059830666 -0.032651663 -0.08422536 -0.072563596
0002f0 5a 28 c2 3c 41 97 97 ba 4b 92 4b bd 12 b6 06 be
       0.023700882 -0.0011565463 -0.049700063 -0.13155392
000300 9e 47 8a bd 8c 92 a5 bd cd 9d c7 bc cc 01 4e bd
       -0.06751941 -0.08084592 -0.024367237 -0.050294682
000310 8a e4 5a bd 09 2a 86 3c 64 4c 7c 3d 0b 97 2c 3c
       -0.053440608 0.016377466 0.06159629 0.010534058
000320 fd 20 4c bd 3b 50 09 3b 3f cd df b9 50 23 ab bd
       -0.049836148 0.0020952362 -0.00042686795 -0.08356345
000330 76 4c 1b bc ad 99 89 bd 3f f9 d8 bd 2b 9c 96 bd
       -0.009478679 -0.067187645 -0.10594415 -0.073540054
000340 d7 d5 94 bd 49 5e 71 bd 31 80 b6 bd 52 ca b2 bd
       -0.07267349 -0.058927808 -0.08911169 -0.08729996
000350 7b 31 a4 bd 88 64 bb 3d 18 90 c6 3d 97 60 1b bd
       -0.0801725 0.09150034 0.096954525 -0.037933912
000360 ef fd 3e bd 2d 63 97 3d 3a a8 71 3d 09 aa a4 3d
       -0.04662889 0.07391963 0.058998324 0.08040244
000370 9c 77 10 bb 60 22 20 bc d3 3c a8 bc cb 59 5a bd
       -0.002204395 -0.009773821 -0.020536816 -0.05330829
000380 65 f3 ec bc ef b5 98 bd c7 61 fd bd 54 20 2b be
       -0.028924653 -0.07456576 -0.12372165 -0.16711551
000390 b4 74 03 be f9 67 b7 bd aa 04 ae bd f2 01 f1 bd
       -0.12837487 -0.08955378 -0.08496983 -0.11767949
0003a0 63 a8 2c bd 64 39 1c 3e b8 e1 b1 3d 01 12 0d 3c
       -0.042152774 0.15256268 0.086856306 0.0086102495
0003b0 21 8c d6 bc a2 ba 54 3d 4e 38 92 3d ca 18 65 3d
       -0.026189866 0.0519358 0.071396455 0.055931844
0003c0 e1 06 2f bd 36 41 e7 bb ba 4d 39 3a ed 9f a1 bc
       -0.04273117 -0.0070573343 0.0007068772 -0.019729579
0003d0 51 e5 0e be 8f fb 8d bd da 40 d3 bd 70 02 0c be
       -0.13954665 -0.069327466 -0.10315104 -0.13672805
0003e0 4a 7e c6 bd 5d ee 03 bd d4 07 d0 bd 45 6a 0b be
       -0.096920565 -0.032209743 -0.10157743 -0.13614757
0003f0 22 65 b6 bc 91 8c f2 3d 73 12 ca 3d 7a 27 77 bc
       -0.02226502 0.11843217 0.098668 -0.015085096

encFC2.bias f4 [2]
000000 26 41 2a be 2b f8 1b be
       -0.16626415 -0.15231387

decFC1.weight f4 [12800, 2]
000000 76 4c 88 bf 47 6c 69 be 74 8b ed bc c6 cc b4 3e
       -1.0648334 -0.22795211 -0.02899716 0.3531248
000010 ec dd 49 bf e9 44 c3 be 7b f2 34 be cd ed 21 3e
       -0.7885425 -0.38138512 -0.17670624 0.1581337
000020 62 a5 97 3d 8a e1 a6 3e bb b9 32 bf 51 33 b1 be
       0.07404591 0.32593948 -0.6981465 -0.34609464
000030 10 cb c6 3c 1e bb 36 3f 57 48 50 bf d1 97 c2 3e
       0.02426675 0.7137927 -0.8136038 0.38006452
000040 83 68 50 3f 7c 16 83 be 9d 45 d2 3e 4a ca 56 3f
       0.8140947 -0.25603092 0.41068736 0.8390242
000050 8d c4 22 bf 62 23 93 3e 5d 27 f3 be 35 c9 0b 3f
       -0.6358116 0.28737932 -0.4749097 0.5460389
000060 6f 09 04 3f 3a 66 1f 3f ff 94 99 bd 6a e0 fc be
       0.51576895 0.6226536 -0.07499122 -0.49389964
000070 95 5b fb 3e d9 7a 85 be ce b0 0b bf cd b4 11 3f
       0.4909331 -0.26070288 -0.5456666 0.56916505
000080 a4 9f c6 bd bc 80 b3 be c7 97 e6 be b0 26 92 be
       -0.09698418 -0.35059154 -0.45037672 -0.2854514
000090 c3 c6 10 3f 00 41 3f 3e 3b d9 38 3f 79 37 49 bf
       0.56553286 0.1867714 0.7220647 -0.7860027
0000a0 56 f1 02 3f 6d 90 52 bf b4 c2 44 3d 18 77 d1 3e
       0.511495 -0.82251626 0.048037246 0.40911174
0000b0 60 f6 1a 3e ce d5 8d 3e a6 19 e7 be 06 48 b8 be
       0.15133047 0.27702183 -0.45136756 -0.3599245
0000c0 e5 bd 52 be 8e 93 ac 3d a8 72 e6 3d 19 d5 6b 3e
       -0.20580252 0.08426581 0.11252338 0.23030509
0000d0 c5 79 25 3f cd fd f3 bd fa 9e 90 3e 53 f4 f8 be
       0.6463893 -0.11913643 0.2824629 -0.48623905
0000e0 a8 b7 00 3f 9c 93 68 be 2e e8 66 3d c2 11 8c be
       0.5028024 -0.22712559 0.056373768 -0.27357298
0000f0 25 19 e5 3e 61 3b c0 be 4c 97 18 3e 22 bb 58 bf
       0.44745746 -0.37545303 0.14901465 -0.8466054
000100 41 38 1a bf 33 8b 46 bf eb e8 22 3f fc b6 ca be
       -0.60242087 -0.7755615 0.63636655 -0.3959273
000110 aa cc 92 3e 1a 83 49 bf 76 dc 49 3c 8c 9b a4 be
       0.2867177 -0.7871567 0.012320628 -0.32149923
000120 ef 6a e6 3e a1 e0 b8 be b6 94 e5 be 9f be c5 be
       0.4500346 -0.36108878 -0.4484002 -0.38621995
000130 c3 e6 98 3e 87 55 47 3e 7a bb 21 3f 48 0f 2b 3f
       0.29863557 0.1946622 0.6317669 0.6682019
000140 ec fe bc be fc a1 49 3f b1 9c 95 3e 56 42 df 3e
       -0.3691324 0.78762794 0.2922111 0.43605298
000150 da 01 88 be d3 68 69 be 17 e0 08 bf 18 e0 ca be
       -0.26563913 -0.22793894 -0.53466934 -0.39624095
000160 75 ff eb be c7 3c e7 3c a8 d6 a7 be a0 ea e7 3b
       -0.46093336 0.028227223 -0.32780957 0.00707753
000170 d0 cc cf 3c 25 cc 4c be e8 61 13 3f d7 ee 26 be
       0.025366217 -0.1999975 0.5757127 -0.16302048
000180 70 23 10 3f 30 e1 99 be d3 94 df 3e ef 5b b6 be
       0.56304073 -0.30054617 0.4366823 -0.35617015
000190 06 0e 93 3e 77 5e 12 3f 31 31 d3 be c7 d6 67 be
       0.28721637 0.5717539 -0.41248468 -0.22640525
0001a0 ef cd 11 3f ec 83 04 3f 76 bb cf be b6 43 1c 3e
       0.56954855 0.51763797 -0.4057271 0.15260205
0001b0 dc bf 26 bf c4 1e 1a bf ff 88 ae bd b7 5d ad 3e
       -0.65136504 -0.60203195 -0.08522224 0.3386056
0001c0 95 02 28 be 45 0e fc 3e 06 de f6 bd f6 8c d9 bc
       -0.16407235 0.49229637 -0.12054066 -0.026556473
0001d0 a8 23 81 3d 09 b7 92 3e eb 67 c7 3d 0f 80 16 3f
       0.06305629 0.2865527 0.09736618 0.5878915
0001e0 cd 29 40 3f 13 84 1f be 0b f2 28 3f 66 0a 84 be
       0.7506378 -0.15577726 0.6599433 -0.25789183
0001f0 61 bf 38 bf 91 76 71 be f5 94 3f bf ce ad a7 be
       -0.7216702 -0.23580386 -0.74836665 -0.3274979
000200 0d fb 3c bf 79 ee d4 be aa 23 1e 3f 6f 1a 96 be
       -0.73820573 -0.4158819 0.6177317 -0.29317042
000210 01 d1 14 3f ab 9f 95 be ff 82 bf bd fa 05 26 3f
       0.58131415 -0.2922338 -0.093511574 0.6485287
000220 9b 20 72 bd e1 43 16 bf c5 9b 34 bf 74 80 a1 3e
       -0.059113126 -0.58697325 -0.70550185 0.31543314
000230 01 b3 f5 be 63 a5 3b bf bc bc 0c 3f b4 04 5f 3e
       -0.47988132 -0.73299235 0.54975486 0.21779138
000240 51 29 f3 3e 91 a7 55 3e 7a 57 05 3f 85 4b 99 bd
       0.4749246 0.20864703 0.52086604 -0.07485107
000250 3c 81 e2 3e b4 94 1a bf bb 1d c3 3e 07 70 0a bf
       0.44239223 -0.6038315 0.3810862 -0.5407719
000260 a6 72 38 3e e0 a9 d1 3e b7 2a 93 be 72 3e 96 3c
       0.18012485 0.40949917 -0.28743526 0.018340323
000270 f6 7b f4 bf 25 84 23 be 74 35 43 3a e3 3d 47 bf
       -1.910033 -0.15968378 0.0007446625 -0.77828807
000280 69 e6 63 bc e3 cc 54 3f 4a b9 42 bf 55 a1 01 bf
       -0.0139099145 0.8312513 -0.7606398 -0.506368
000290 d2 8c b2 3e 34 9c 11 bf e7 4d 31 3f 91 ac 04 3f
       0.34873062 -0.5687897 0.69259495 0.51825815
0002a0 6a a9 c5 3e dd 4b 1d bf 33 79 d6 3c 2c 7e fe bd
       0.38605815 -0.61443883 0.02618084 -0.12426409
0002b0 01 4c 0e 3f c0 a8 88 3e fc a9 4d be b4 66 bf 3d
       0.5558472 0.26691246 -0.20084375 0.09345761
0002c0 4c f1 5e 3e bb a9 02 be 7f 35 ef 3e 9f 78 01 3f
       0.21771735 -0.1276006 0.46720502 0.5057468
0002d0 9b 71 a2 3d 9f b1 4b bf cb b0 26 3e cb ef 39 bd
       0.07931825 -0.79567903 0.16278379 -0.0453947
0002e0 78 fe 16 3f 3b d3 25 3f cd 3a 14 3f 84 d8 7d 3e
       0.5898204 0.6477544 0.5790222 0.24789625
0002f0 86 0b 1a bf c9 d9 be be b9 bc 15 3f 37 c6 5e bf
       -0.60173833 -0.37275532 0.5849109 -0.870212
000300 62 07 24 bf 88 79 f2 3e dc b0 26 bf 34 d3 9f be
       -0.64073765 0.47358346 -0.65113616 -0.31215823
000310 86 75 86 bf 11 16 6b 3d 5b 53 0c be 30 c3 1f 3f
       -1.0504615 0.05739409 -0.13703673 0.6240721
000320 c7 f5 33 bf cd c5 f9 be 8d 69 6e bf be 29 02 bf
       -0.702969 -0.48783723 -0.9312981 -0.50844944
000330 c5 1c 18 bf 99 3c af be 96 24 b5 be 85 de 68 be
       -0.594189 -0.3422592 -0.35379475 -0.22741134
000340 2c 86 6f bd b5 46 54 bf 5f e9 89 3d 73 79 1e 3e
       -0.058477566 -0.8292039 0.06733965 0.15476017
000350 b0 47 f4 be bb 5a 09 bc 3c f1 1c 3f e9 36 42 bf
       -0.47710943 -0.008383448 0.61305594 -0.75865036
000360 a8 c4 0b 3f 74 da 59 be 73 58 22 3f e2 07 22 be
       0.5459695 -0.2127474 0.6341621 -0.1582332
000370 57 f2 ba be 11 49 74 3e 4b dd ce be c6 e1 d0 3d
       -0.36513016 0.23855998 -0.40403208 0.10199313
000380 d7 e7 aa 3e 87 06 9d 3e 4b 05 e7 3e cb 86 de be
       0.33380005 0.30669042 0.45121226 -0.43462214
000390 89 e5 38 3d 9d c3 50 be ab b4 c5 be 58 59 33 3f
       0.045140777 -0.2038712 -0.386144 0.700582
0003a0 a3 f1 ef 3e 62 35 5b 3e bc 60 bd 3d 6a 98 ab 3e
       0.46864042 0.21407083 0.09246966 0.3351472
0003b0 91 ee be be e5 19 2d bf da b4 d3 3d d9 62 f2 3e
       -0.37291387 -0.67617637 0.10337229 0.4734104
0003c0 ec 1f 28 bf 67 bb 98 3e 90 9a 28 bf d5 04 b6 be
       -0.6567371 0.29830477 -0.65860844 -0.35550562
0003d0 90 f3 d8 3e 6e ca 45 be 21 d1 2c 3f 66 66 00 3f
       0.42373323 -0.19315502 0.67506605 0.5015625
0003e0 df b6 57 bd a6 63 2a bf 59 9f e2 be 3e e5 a4 bd
       -0.052664634 -0.665583 -0.44262198 -0.08051537
0003f0 72 35 30 3f 6a 4b 75 bd 53 5a cf 3d 62 89 13 3e
       0.6883155 -0.059886374 0.1012465 0.14407876

decFC1.bias f4 [12800]
000000 bf 3d fc bd 88 bc 59 3f fb a4 ed 3c d9 9d cb bd
       -0.12316465 0.850533 0.029009333 -0.099422164
000010 c4 80 56 3d 28 ab 47 bf 18 3b 9d 3d a0 21 19 3f
       0.052368894 -0.7799554 0.07677287 0.5981693
000020 64 ad 3a bf 52 25 c9 be d4 eb 73 be 50 28 51 bf
       -0.72920823 -0.39286286 -0.2382043 -0.81702137
000030 85 87 53 be fe 02 1b 3f 88 85 fb 3e 15 9e e3 3e
       -0.20657165 0.6055144 0.49125314 0.44456545
000040 10 c2 25 3f ff ee 06 bf dd bd c4 be c5 cd 07 3f
       0.6474924 -0.5270843 -0.38426104 0.53048354
000050 4c 2f 64 3f 45 a8 60 3f f2 86 17 3d 03 ba 39 bc
       0.8913467 0.8775676 0.03699393 -0.011335853
000060 58 28 26 bf ba a7 3b bd c7 99 1f 3f a2 f0 ca 3e
       -0.6490531 -0.045814253 0.6234402 0.39636713
000070 82 0c b1 be bf 56 30 3f bf d7 94 3e e4 62 de be
       -0.34579855 0.68882364 0.2907085 -0.43434823
000080 6b 11 19 3f 5d 36 1b 3f e5 d3 e3 3e 2e 01 76 bd
       0.597922 0.60629827 0.444976 -0.06005972
000090 8e df 01 3e ae ed 12 bf 50 c4 9e be 56 c0 3f be
       0.12682936 -0.5739392 -0.3100915 -0.18725714
0000a0 bc 84 17 3f f3 9e 12 3e e9 d5 79 be ab fd 2e bc
       0.5918691 0.14318447 -0.24398006 -0.010680596
0000b0 cb 86 fd 3e 18 5f c6 be a7 c0 23 3f ab f0 b3 be
       0.495169 -0.38744426 0.6396584 -0.35144553
0000c0 fa 06 46 bf 48 16 b9 3e 69 c4 4e be b3 81 39 bf
       -0.77354395 0.36149812 -0.20192112 -0.7246353
0000d0 56 ef 90 3e 34 6e 77 bf ab b4 d2 be 7c 88 06 bf
       0.283076 -0.9665253 -0.41153464 -0.5255201
0000e0 db 98 3a bf fd b9 bc 3e d6 7a 2a 3e a6 33 8c ba
       -0.7288949 0.36860648 0.1664842 -0.0010696545
0000f0 32 eb 4c 3f c5 f8 89 3e 93 2e 90 3d 2b f8 2c bf
       0.8004638 0.2694761 0.07040133 -0.67566174
000100 05 33 b6 3d c4 ed 4f bf e7 7b 3e ba 17 b6 1b bf
       0.0889645 -0.81222177 -0.00072663877 -0.6082472
000110 d2 29 ec be 6e 5a c7 3d 24 a3 18 be c4 d4 0e bf
       -0.46125656 0.09734045 -0.14905983 -0.55793405
000120 f9 0e 09 3f f8 68 da bc 47 3f c9 3e 65 10 c2 3e
       0.5353847 -0.026661381 0.3930609 0.37903133
000130 ac b1 17 3e 87 64 1d 3f 4c 73 9b 3e 59 02 f2 3e
       0.1481387 0.6148152 0.30361402 0.47267416
000140 03 05 dd be ca e5 55 be 61 18 73 3e 55 40 4a bd
       -0.43167886 -0.20888439 0.23739769 -0.049377758
000150 33 6c f3 3e 4b cb c7 3e bd 6e 04 3e 07 48 1b 3f
       0.47543487 0.39022288 0.12932868 0.6065678
000160 9f 96 c6 3d 5a 91 11 3f 86 93 90 3e 26 84 19 3f
       0.096966974 0.56862414 0.2823755 0.5996727
000170 0a 15 9c be a8 d2 2e 3f 90 93 86 3e 60 2f 35 3f
       -0.30484802 0.68290186 0.26284456 0.70775414
000180 20 09 95 3e 67 d9 84 be 88 75 c4 be 0f 1f a2 3d
       0.29108524 -0.25947115 -0.3837092 0.0791608
000190 0c 18 7f be d5 fb bc bd 1d 87 cf bc 87 b3 e8 3c
       -0.24911517 -0.09227721 -0.025332982 0.028405918
0001a0 85 40 35 3f 52 ac 06 be 4c 1f 58 3e 66 03 c2 bc
       0.70801574 -0.13151672 0.21105689 -0.023683261
0001b0 a8 5f 1b 3f 1c 0e e9 3e 17 b3 d8 bb 78 bc 40 bf
       0.60692835 0.45518577 -0.006613146 -0.7528758
0001c0 a5 44 23 bd 5c 85 88 3e a2 9b 38 3e 3b 36 c9 3d
       -0.039860386 0.26664245 0.18028119 0.09824797
0001d0 09 c3 c3 3e 76 4d 69 be 36 bd 02 3d 70 25 23 bd
       0.38234738 -0.22783455 0.031918727 -0.039830625
0001e0 5b 3a 8e 3e ee 3f d0 bd 2e 48 0a bf 71 43 2d 3f
       0.27778897 -0.101684436 -0.5401639 0.6768103
0001f0 dd fe ea be 7e ad 47 be 6e 71 a3 3e 14 76 f9 3d
       -0.4589757 -0.19499776 0.31922477 0.12180725
000200 35 e6 1d bf 2c ac 25 3e ff e6 16 3e 65 20 92 3d
       -0.61679393 0.1617896 0.14736556 0.07135085
000210 0b 51 08 3f 2b 7d cf bd 99 c3 ca be f3 4a 21 bf
       0.5324866 -0.10131296 -0.39602354 -0.6300499
000220 ad be 03 3e c6 c0 81 3d aa 68 5c bf 57 15 24 bf
       0.12865706 0.06335597 -0.86097205 -0.6409506
000230 ad 6c 2f bf 4b 3f 9c 3e b3 71 e9 3e 17 ea f0 bd
       -0.685252 0.3051704 0.45594558 -0.11763399
000240 b0 a1 b8 3e 97 d4 e3 be 95 f4 0d bf 79 a2 6c 3e
       0.36060858 -0.4449813 -0.5545133 0.23108853
000250 05 71 70 3e 88 00 a2 be 0a a6 55 bf 42 cc 87 be
       0.23480614 -0.3164103 -0.8345648 -0.26523024
000260 ee 68 18 3f 39 7e 83 bd d0 70 ac 3e d8 b4 a0 bd
       0.5953511 -0.064205594 0.3367982 -0.07846993
000270 5d 09 b6 3d 50 b7 8c 3e d0 9b bc 3e 6a f6 8d 3e
       0.08888505 0.27483606 0.36837626 0.27727062
000280 c4 6d 68 be 10 79 94 be 5e ec 84 3e 7a 4f 60 bf
       -0.22698122 -0.28998613 0.25961584 -0.8762127
000290 c1 02 86 be c8 f8 70 be d0 96 3a be 43 c4 86 be
       -0.26173976 -0.23532403 -0.18221593 -0.2632161
0002a0 e2 eb 36 3f b7 6e a3 be 79 cf 0b be 17 60 93 3e
       0.7145368 -0.31920406 -0.13653363 0.28784248
0002b0 80 58 9b 3c 78 ee 1b 3f 88 b3 90 be cb cd fd be
       0.018963099 0.6091075 -0.2826197 -0.4957107
0002c0 21 36 b8 3d 5b 1a af 3e 5f 98 a8 3d 40 ff 8f 3e
       0.08994699 0.34199795 0.082321875 0.28124428
0002d0 01 db 0f be cb a8 80 3e f3 d9 48 3f 53 ff 03 3e
       -0.14048387 0.2512878 0.78457564 0.12890367
0002e0 82 aa c1 be 51 90 c7 3e e4 f1 b5 ba 42 ae e8 3d
       -0.378254 0.38977292 -0.0013881293 0.11361362
0002f0 96 fa c2 be 2c a6 88 be 96 3f ff 3d b4 2a c4 be
       -0.38081807 -0.2668928 0.124633 -0.3831383
000300 43 80 a6 3e e1 97 65 3e 89 1f b1 bd 5f 0f 01 be
       0.3251973 0.22421218 -0.08648593 -0.1260352
000310 73 eb d8 be aa 57 80 3e c4 a5 eb 3e c0 83 22 3f
       -0.42367133 0.25066882 0.46024907 0.63482285
000320 a6 49 43 bf 93 23 9e bd 89 1b d6 be 5d 0d 9c be
       -0.76284254 -0.07721629 -0.41817883 -0.30478945
000330 94 25 09 bf f2 90 ec be e2 e5 cf 3d dc 7a 00 3f
       -0.53572965 -0.46204334 0.101512685 0.5018747
000340 58 88 ff bc d4 57 ae be 38 37 c8 be 69 0e 2c 3e
       -0.031192943 -0.34051383 -0.3910463 0.16802372
000350 d7 d0 0e bf 90 67 65 3e 45 5c 80 3e fb 37 6a 3e
       -0.55787414 0.22402787 0.25070396 0.22872917
000360 45 be 05 bf 6e dd af 3e 02 9c 05 3e f6 28 10 3f
       -0.52243453 0.34348625 0.13047794 0.563125
000370 89 28 8f 3c 5d d3 4c 3d d2 9d 75 3c 5b 99 9a be
       0.017475383 0.05000626 0.014991241 -0.30195126
000380 0f f0 35 be 35 b4 f3 3e 85 fd 46 be d9 32 90 3e
       -0.17767356 0.47598425 -0.19432648 0.28163794
000390 8d 13 2a bf 30 b7 ad be 0e f6 4f bf ba c8 c6 3e
       -0.6643608 -0.33928823 -0.81234825 0.38825017
0003a0 a4 c7 40 be 73 73 5c 3e e1 f2 a1 bd af 82 6d 3e
       -0.18826157 0.21528415 -0.079076536 0.23194383
0003b0 cf bc 8f be 5a 2e 99 3e aa 2b 5b 3e c5 35 94 bd
       -0.28073737 0.29918176 0.21403375 -0.07236818
0003c0 1e 40 26 bd 0e 9f 82 be ff 09 df be 0c 21 29 3f
       -0.04058849 -0.25511974 -0.43562314 0.6606605
0003d0 37 2d 21 bf cf 43 e0 bd 1b bd 97 3d d7 28 8b be
       -0.6295962 -0.109504335 0.07409116 -0.27179596
0003e0 31 93 7d be 81 ca 1f 3f 5d e2 04 bf 02 b2 05 bf
       -0.2476318 0.6241837 -0.519079 -0.52224743
0003f0 46 f0 30 be da ca f4 3e 3e 2a ad 3e 02 63 9d 3e
       -0.17279157 0.47811013 0.3382129 0.307396
